…
radj='type1', mask_rate=0.25, model='iTransformer', model_id='test', model_name='Baseline_concat_mlp', moving_avg=25, n_heads=8, num_class=4, num_kernels=6, num_workers=10, output_attention=True, p_hidden_dims=[128, 128], p_hidden_layers=2, patience=3, pred_len=96, root_path='./data/ETT/', seasonal_patterns='Monthly', seq_len=300, target='OT', task_name='classification', tasks=[3, 3, 2, 4], top_k=5, train_epochs=10, use_amp=False, use_gpu=False, use_multi_gpu=False)

 <class 'layers.Model.Baseline_concat_mlp'>
Baseline_concat_mlp(
  (enc_embedding): DataEmbedding_inverted(
    (value_embedding): Linear(in_features=300, out_features=512, bias=True)
    (dropout): Dropout(p=0.1, inplace=False)
  )
  (encoder): Encoder(
    (attn_layers): ModuleList(
      (0-1): 2 x EncoderLayer(
        (attention): AttentionLayer(
          (inner_attention): FullAttention(
            (dropout): Dropout(p=0.1, inplace=False)
          )
          (query_projection): Linear(in_features=512, out_features=512, bias=True)
          (key_projection): Linear(in_features=512, out_features=512, bias=True)
          (value_projection): Linear(in_features=512, out_features=512, bias=True)
          (out_projection): Linear(in_features=512, out_features=512, bias=True)
        )
        (conv1): Conv1d(512, 2048, kernel_size=(1,), stride=(1,))
        (conv2): Conv1d(2048, 512, kernel_size=(1,), stride=(1,))
        (norm1): LayerNorm((512,), eps=1e-05, elementwise_affine=True)
        (norm2): LayerNorm((512,), eps=1e-05, elementwise_affine=True)
        (dropout): Dropout(p=0.1, inplace=False)
      )
    )
    (norm): LayerNorm((512,), eps=1e-05, elementwise_affine=True)
  )
  (proj): Linear(in_features=512, out_features=128, bias=True)
  (cls_tokens): ParameterDict(
      (0): Parameter containing: [torch.cuda.FloatTensor of size 1x1x128 (GPU 0)]
      (1): Parameter containing: [torch.cuda.FloatTensor of size 1x1x128 (GPU 0)]
      (2): Parameter containing: [torch.cuda.FloatTensor of size 1x1x128 (GPU 0)]
      (3): Parameter containing: [torch.cuda.FloatTensor of size 1x1x128 (GPU 0)]
      (4): Parameter containing: [torch.cuda.FloatTensor of size 1x1x128 (GPU 0)]
  )
  (task_heads): ModuleDict(
    (0): Mlp(
      (fc1): Linear(in_features=128, out_features=128, bias=True)
      (act): GELU(approximate='none')
      (fc2): Linear(in_features=128, out_features=3, bias=True)
      (drop): Dropout(p=0.0, inplace=False)
    )
    (1): Mlp(
      (fc1): Linear(in_features=128, out_features=128, bias=True)
      (act): GELU(approximate='none')
      (fc2): Linear(in_features=128, out_features=3, bias=True)
      (drop): Dropout(p=0.0, inplace=False)
    )
    (2): Mlp(
      (fc1): Linear(in_features=128, out_features=128, bias=True)
      (act): GELU(approximate='none')
      (fc2): Linear(in_features=128, out_features=2, bias=True)
      (drop): Dropout(p=0.0, inplace=False)
    )
    (3): Mlp(
      (fc1): Linear(in_features=128, out_features=128, bias=True)
      (act): GELU(approximate='none')
      (fc2): Linear(in_features=128, out_features=4, bias=True)
      (drop): Dropout(p=0.0, inplace=False)
    )
  )
  (our_blks): ModuleList(
    (0-3): 4 x Concat_Mlp(
      (tb): ModuleDict(
        (0): Conv1dMlp(
          (conv1): Conv1d(256, 256, kernel_size=(5,), stride=(1,), padding=(2,))
          (act): GELU(approximate='none')
          (conv2): Conv1d(256, 128, kernel_size=(5,), stride=(1,), padding=(2,))
          (drop): Dropout(p=0.0, inplace=False)
        )
        (1): Conv1dMlp(
          (conv1): Conv1d(256, 256, kernel_size=(5,), stride=(1,), padding=(2,))
          (act): GELU(approximate='none')
          (conv2): Conv1d(256, 128, kernel_size=(5,), stride=(1,), padding=(2,))
          (drop): Dropout(p=0.0, inplace=False)
        )
        (2): Conv1dMlp(
          (conv1): Conv1d(256, 256, kernel_size=(5,), stride=(1,), padding=(2,))
          (act): GELU(approximate='none')
          (conv2): Conv1d(256, 128, kernel_size=(5,), stride=(1,), padding=(2,))
          (drop): Dropout(p=0.0, inplace=False)
        )
        (3): Conv1dMlp(
          (conv1): Conv1d(256, 256, kernel_size=(5,), stride=(1,), padding=(2,))
          (act): GELU(approximate='none')
          (conv2): Conv1d(256, 128, kernel_size=(5,), stride=(1,), padding=(2,))
          (drop): Dropout(p=0.0, inplace=False)
        )
      )
      (cb): Conv1dMlp(
        (conv1): Conv1d(512, 512, kernel_size=(1,), stride=(1,))
        (act): GELU(approximate='none')
        (conv2): Conv1d(512, 128, kernel_size=(1,), stride=(1,))
        (drop): Dropout(p=0.0, inplace=False)
      )
      (maxpool): MaxPool1d(kernel_size=2, stride=2, padding=0, dilation=1, ceil_mode=False)
    )
  )
)
2024-07-01 07:12:03	 Model [<class 'layers.Model.Baseline_concat_mlp'>] Fold [0] Epoch [010/500] Loss: 1.2541 Acc: [0.641, 0.555, 0.77, 0.373]
2024-07-01 07:12:21	 Model [<class 'layers.Model.Baseline_concat_mlp'>] Fold [0] Epoch [020/500] Loss: 1.1166 Acc: [0.684, 0.617, 0.77, 0.397]
…
